past/linear/model.pth (torch_old, 1566 bytes, 2 tensors)

fc1.weight f4 [5, 50]
00000000: 0529 26bd ff23 593e 93d9 34be 75d4 f6bd
00000010: fef7 51be 91f0 ab3d 52d3 1bbd b6be 763d
00000020: 339f 11be 3012 163d 817a 6abe 2944 8ebd
00000030: 8ea8 80bd 0ae6 c6be 0487 e23d d11e 183e
00000040: 4c13 b439 b8c1 893e 3589 c7bd bb40 fe3e
00000050: 30f3 0b3d 981f 3e3e 7389 4b3e a272 65be
00000060: 22c9 a3be 04cf 793c 3ca9 0dbe c390 923c
00000070: 0b1d 9abe 70f4 a83d cd07 9ebd 4c85 603d
00000080: 399a e93d f62a 8fbd 3ab1 903d 09b7 c43e
00000090: dcd7 59bc b112 febd a33a b0be bcd8 fbbc
000000a0: c5b8 a23d 7e9e ac3e 82ad 34bd 920d 943e
000000b0: f6b6 83bd 23d5 c1bd 8ac8 52bc 8642 0ebc
000000c0: e6ac 4c3e d923 eabe d22c 323e c576 be3d
000000d0: 2ec3 babd c0e5 273d 93d8 a4bd 137c 55be
000000e0: 50ea 81bd e407 aa3d dfc3 a13d 8955 d4bc
000000f0: 78b3 983d 9556 adbc b968 60be 7bb1 493e
00000100: 7556 ed3d 27fd 9f3d 6530 54bd 152b ae3d
00000110: 3999 a13d 84e3 86be 93f2 d2bd 4041 263d
00000120: b1a1 e63d 04eb b63d ec92 8fbc 34c9 46be
00000130: 5c9f 0b3e 1edf f43c d217 de3c acb6 d3bd
00000140: d671 cc3b c9a9 de3d f265 a53d 7c1e 2f3e
00000150: 6d27 2bbe d501 68bd 581c 9ebc 775b 0cbe
00000160: 92f1 a13d d1bb 95bc 80ee 9abd 3520 07be
00000170: 3d05 41be 64c2 efbb 504c 25be b363 1c3d
00000180: 78bf 92bd b7f3 8f3c f7e6 993d c154 bb3e
00000190: 280e e73d 32eb 57be 5d0a 233e b025 e7bd
000001a0: 0e79 91bd 9e6a 4cbd 4633 173e 1b24 28bc
000001b0: 0156 0f3d 7f0e bebe 21af 4e3e 3524 ba3b
000001c0: f9f2 e13c 0824 233e 68ec 96bb 542a 00be
000001d0: d21c 1ebe b49a ecbd 7828 e7bd 8e9c 3abe
000001e0: 89b8 9bbd cb6e 7b3e d6cb 8d3d 4db3 7c3e
000001f0: d996 803e b05d 94bd f042 3f3e d1a5 ea3d
00000200: 16ff 50be c2d8 40be 2302 50bd 0af0 3bbd
00000210: 63fa 3a3d d536 fdbc 0979 0c3e 8936 a1bc
00000220: b34c 1e3c fa9d 953d 34e7 6dbe b87b c83c
00000230: 70f4 5d3d ad75 b8bb 81fc 173e 5466 1e3d
00000240: 83c1 133e 4ec7 f73d 80ac 41bd d2ba 01be
00000250: 86cf 84be cbf3 983e 6a4f 27bd bc49 5a3d
00000260: 8cab 323d bead 45bc 9173 a73d b972 02be
00000270: 4f4a 5bbd e84e 073e 8516 59bc 022b 9c3e
00000280: 5cdb 4ebe 187b 8d3d f1f4 263d e521 b43e
00000290: e0fc b73c dca8 943b 25b9 133e 82de f73d
000002a0: 2b5b c43d 5e8f 0abf 35de 213e c7c1 5b3d
000002b0: 07bf 0bbe 988d 5f3e 331d 4a3c fa05 b83d
000002c0: 2fa3 7bbc 3088 abbe bec3 fd3d b593 953d
000002d0: 10a9 7fbe 3298 6c3c fb9b 2e3d 66e6 383e
000002e0: a5ca febd c18f 35bd b4e2 393c 4287 b33d
000002f0: 5748 ef3d 275a a1bd 7098 063d c068 95bd
00000300: 9c0c 083c 9533 bdbd ca97 8ebd 1712 113e
00000310: 5862 1e3c 4a93 093e f89d 83be 307f d93e
00000320: af20 23be 0ba9 d3bd 3ad9 ed3d 4877 5f3e
00000330: c3b6 0dbe 7dfb 85bd 6ba7 173e f297 a6be
00000340: 22aa 23be 54cc 05bd 3bd9 c73d 71f3 083d
00000350: 743b 263e 231b e3be b1c1 0abe 0edb ee3c
00000360: f7d2 cc3d 82a3 563d 9e87 4cbe 639b c43e
00000370: 0de6 49bc ef96 47bd faf6 de3c 113a 16bf
00000380: 086a 683d e9d4 2c3e e798 853d fecd 6dbd
00000390: ec14 8e3e 59f1 ba3e 042f 503e 2f14 29bc
000003a0: 6529 3abe 6abc 643e 13ad cebd e205 8d3d
000003b0: f451 17be ce58 1c3d c457 ed3e ad6f 47be
000003c0: 168a bbbd 7da4 07be 3844 4c3e 6132 12be
000003d0: 863d 0ebe a984 39be fc8e 51be 418a 48bc
000003e0: bcdc d53e 73b2 98be
-0.040566463 0.21205138 -0.17661123 -0.12052242 -0.20504758 0.08395494 -0.038043328 0.06024047
-0.14220886 0.03663844 -0.22898294 -0.06946594 -0.06282149 -0.3884738 0.110609084 0.14855506
0.00034346653 0.26905608 -0.09742967 0.4965876 0.03416747 0.1856674 0.19876651 -0.2240701
-0.3198939 0.01524711 -0.13834089 0.017891293 -0.30100283 0.08249748 -0.07716332 0.05481462
0.11406369 -0.06990616 0.07065053 0.38420895 -0.013296094 -0.12405909 -0.34419736 -0.030742995
0.07945398 0.3371467 -0.044110782 0.28916603 -0.064313814 -0.09464481 -0.012865195 -0.008682853
0.1998783 -0.45730475 0.1739991 0.09299997 -0.09119259 0.04099059 -0.08049121 -0.20848112
-0.0634352 0.08302286 0.078986876 -0.025919693 0.07456106 -0.02115945 -0.21914949 0.1969661
0.11588756 0.07811957 -0.051803965 0.08504311 0.07890553 -0.26345456 -0.103001736 0.04058957
0.11261309 0.089315444 -0.017526112 -0.1941269 0.1363501 0.029891547 0.027110968 -0.10337576
0.0062391562 0.10872228 0.08076085 0.17101473 -0.16714258 -0.056642372 -0.019300625 -0.13706766
0.07907404 -0.018278034 -0.075650215 -0.1319588 -0.18849654 -0.0073168743 -0.16142392 0.038181018
-0.07165426 0.017572267 0.07514756 0.365881 0.11281997 -0.21085814 0.15921922 -0.11286485
-0.071031675 -0.049906366 0.14765653 -0.010262514 0.03499413 -0.37120435 0.20183994 0.0056805857
0.027581679 0.15931714 -0.0046058185 -0.12516147 -0.15440682 -0.11552945 -0.11287016 -0.18223783
-0.07603557 0.24553983 0.06923644 0.24677773 0.25115088 -0.07244432 0.18677878 0.11457408
-0.20409808 -0.18832687 -0.050783288 -0.045883216 0.045648944 -0.030909935 0.13718046 -0.019679325
0.009661841 0.07305522 -0.23232728 0.024473056 0.054188192 -0.0056292624 0.14842416 0.038671806
0.14429288 0.12098561 -0.04728365 -0.12668923 -0.25939578 0.298735 -0.04084722 0.053292975
0.04362063 -0.012065349 0.081763394 -0.12739076 -0.053537663 0.13213694 -0.013249998 0.30501562
-0.20200866 0.06908244 0.040760938 0.3518211 0.022459447 0.004536731 0.14426096 0.12102987
0.095877014 -0.5412501 0.15807422 0.053651597 -0.1364709 0.21831357 0.012336063 0.08985515
-0.01535873 -0.3350234 0.123908505 0.073035635 -0.24966836 0.014440583 0.042629223 0.1805664
-0.12440995 -0.044326548 0.011345554 0.08766033 0.116837196 -0.07878523 0.03286022 -0.0729537
0.008303788 -0.09238354 -0.06962545 0.14167057 0.009667002 0.13435093 -0.25706458 0.4247985
-0.15930437 -0.10334977 0.11613698 0.21822846 -0.1383925 -0.06542108 0.14809959 -0.325378
-0.1598287 -0.032665566 0.0975823 0.03343529 0.16233617 -0.4435664 -0.1355045 0.029157188
0.10001176 0.052402027 -0.19973609 0.383998 -0.012322915 -0.048727926 0.027217377 -0.5868235
0.056741744 0.16878094 0.065233044 -0.058057778 0.27750337 0.3651226 0.20330435 -0.010319754
-0.18179853 0.223375 -0.10091605 0.06885888 -0.14777356 0.03817063 0.46356022 -0.19476195
-0.09157197 -0.13246341 0.19947898 -0.1427703 -0.13890657 -0.18117012 -0.204647 -0.012239994
0.4176997 -0.29823646

fc1.bias f4 [5]
00000000: 908a 99bd 9126 ac3d a3e0 7c3d 74fe 96bd
00000010: db77 653e
-0.07497132 0.084057935 0.061737668 -0.07372752 0.22409002
